…
<img src="https://s4.ax1x.com/2022/02/26/bZtA5n.png" alt="图片描述"><br>&amp;ensp;&amp;ensp;201是self.no参数，在detect类中定义（如下图），代表着[16个类别，cx,cy,l,s,theta，180个gaussian_theta_labels]，值得注意的是，这201个参数是相对于一个anchor来说的。这里2是bz，3是每一个grid负责的anchor数量，即一个grid产生3个anchor，然后每一张图片，按3个尺度，分成128×128，64×64，32×32个grid。<br><img src="https://s4.ax1x.com/2022/02/26/bZt0VH.png" alt="图片描述"> </p><h3 id="二、网络结构"><a href="#二、网络结构" class="headerlink" title="二、网络结构"></a>二、网络结构</h3><p>&amp;ensp;&amp;ensp;这是<strong>self.model</strong>全部内容，共25层，最后一层<strong>detect</strong>层：  </p><pre><code class="python">Sequential(  (0): Conv(    (conv): Conv2d(3, 48, kernel_size=(6, 6), stride=(2, 2), padding=(2, 2), bias=False)    (bn): BatchNorm2d(48, eps=0.001, momentum=0.03, affine=True, track_running_stats=True)    (act): SiLU(inplace=True)  )  (1): Conv(    (conv): Conv2d(48, 96, kernel_size=(3, 3), stride=(2, 2), padding=(1, 1), bias=False)    (bn): BatchNorm2d(96, eps=0.001, momentum=0.03, affine=True, track_running_stats=True)    (act): SiLU(inplace=True)  )  (2): C3(    (cv1): Conv(      (conv): Conv2d(96, 48, kernel_size=(1, 1), stride=(1, 1), bias=False)      (bn): BatchNorm2d(48, eps=0.001, momentum=0.03, affine=True, track_running_stats=True)      (act): SiLU(inplace=True)    )    (cv2): Conv(      (conv): Conv2d(96, 48, kernel_size=(1, 1), stride=(1, 1), bias=False)      (bn): BatchNorm2d(48, eps=0.001, momentum=0.03, affine=True, track_running_stats=True)      (act): SiLU(inplace=True)    )    (cv3): Conv(      (conv): Conv2d(96, 96, kernel_size=(1, 1), stride=(1, 1), bias=False)      (bn): BatchNorm2d(96, eps=0.001, momentum=0.03, affine=True, track_running_stats=True)      (act): SiLU(inplace=True)    )    (m): Sequential(      (0): Bottleneck(        (cv1): Conv(          (conv): Conv2d(48, 48, kernel_size=(1, 1), stride=(1, 1), bias=False)          (bn): BatchNorm2d(48, eps=0.001, momentum=0.03, affine=True, track_running_stats=True)          (act): SiLU(inplace=True)        )        (cv2): Conv(          (conv): Conv2d(48, 48, kernel_size=(3, 3), stride=(1, 1), padding=(1, 1), bias=False)          (bn): BatchNorm2d(48, eps=0.001, momentum=0.03, affine=True, track_running_stats=True)          (act): SiLU(inplace=True)        )      )      (1): Bottleneck(        (cv1): Conv(          (conv): Conv2d(48, 48, kernel_size=(1, 1), stride=(1, 1), bias=False)          (bn): BatchNorm2d(48, eps=0.001, momentum=0.03, affine=True, track_running_stats=True)          (act): SiLU(inplace=True)        )        (cv2): Conv(          (conv): Conv2d(48, 48, kernel_size=(3, 3), stride=(1, 1), padding=(1, 1), bias=False)          (bn): BatchNorm2d(48, eps=0.001, momentum=0.03, affine=True, track_running_stats=True)          (act): SiLU(inplace=True)        )      )    )  )  (3): Conv(    (conv): Conv2d(96, 192, kernel_size=(3, 3), stride=(2, 2), padding=(1, 1), bias=False)    (bn): BatchNorm2d(192, eps=0.001, momentum=0.03, affine=True, track_running_stats=True)    (act): SiLU(inplace=True)  )  (4): C3(    (cv1): Conv(      (conv): Conv2d(192, 96, kernel_size=(1, 1), stride=(1, 1), bias=False)      (bn): BatchNorm2d(96, eps=0.001, momentum=0.03, affine=True, track_running_stats=True)      (act): SiLU(inplace=True)    )    (cv2): Conv(      (conv): Conv2d(192, 96, kernel_size=(1, 1), stride=(1, 1), bias=False)      (bn): BatchNorm2d(96, eps=0.001, momentum=0.03, affine=True, track_running_stats=True)      (act): SiLU(inplace=True)    )    (cv3): Conv(      (conv): Conv2d(192, 192, kernel_size=(1, 1), stride=(1, 1), bias=False)      (bn): BatchNorm2d(192, eps=0.001, momentum=0.03, affine=True, track_running_stats=True)      (act): SiLU(inplace=True)    )    (m): Sequential(      (0): Bottleneck(        (cv1): Conv(          (conv): Conv2d(96, 96, kernel_size=(1, 1), stride=(1, 1), bias=False)          (bn): BatchNorm2d(96, eps=0.001, momentum=0.03, affine=True, track_running_stats=True)          (act): SiLU(inplace=True)        )        (cv2): Conv(          (conv): Conv2d(96, 96, kernel_size=(3, 3), stride=(1, 1), padding=(1, 1), bias=False)          (bn): BatchNorm2d(96, eps=0.001, momentum=0.03, affine=True, track_running_stats=True)          (act): SiLU(inplace=True)        )      )      (1): Bottleneck(        (cv1): Conv(          (conv): Conv2d(96, 96, kernel_size=(1, 1), stride=(1, 1), bias=False)          (bn): BatchNorm2d(96, eps=0.001, momentum=0.03, affine=True, track_running_stats=True)          (act): SiLU(inplace=True)        )        (cv2): Conv(          (conv): Conv2d(96, 96, kernel_size=(3, 3), stride=(1, 1), padding=(1, 1), bias=False)          (bn): BatchNorm2d(96, eps=0.001, momentum=0.03, affine=True, track_running_stats=True)          (act): SiLU(inplace=True)        )      )      (2): Bottleneck(        (cv1): Conv(          (conv): Conv2d(96, 96, kernel_size=(1, 1), stride=(1, 1), bias=False)          (bn): BatchNorm2d(96, eps=0.001, momentum=0.03, affine=True, track_running_stats=True)          (act): SiLU(inplace=True)        )        (cv2): Conv(          (conv): Conv2d(96, 96, kernel_size=(3, 3), stride=(1, 1), padding=(1, 1), bias=False)          (bn): BatchNorm2d(96, eps=0.001, momentum=0.03, affine=True, track_running_stats=True)          (act): SiLU(inplace=True)        )      )      (3): Bottleneck(        (cv1): Conv(          (conv): Conv2d(96, 96, kernel_size=(1, 1), stride=(1, 1), bias=False)          (bn): BatchNorm2d(96, eps=0.001, momentum=0.03, affine=True, track_running_stats=True)          (act): SiLU(inplace=True)        )        (cv2): Conv(          (conv): Conv2d(96, 96, kernel_size=(3, 3), stride=(1, 1), padding=(1, 1), bias=False)          (bn): BatchNorm2d(96, eps=0.001, momentum=0.03, affine=True, track_running_stats=True)          (act): SiLU(inplace=True)        )      )    )  )  (5): Conv(    (conv): Conv2d(192, 384, kernel_size=(3, 3), stride=(2, 2), padding=(1, 1), bias=False)    (bn): BatchNorm2d(384, eps=0.001, momentum=0.03, affine=True, track_running_stats=True)    (act): SiLU(inplace=True)  )  (6): C3(    (cv1): Conv(      (conv): Conv2d(384, 192, kernel_size=(1, 1), stride=(1, 1), bias=False)      (bn): BatchNorm2d(192, eps=0.001, momentum=0.03, affine=True, track_running_stats=True)      (act): SiLU(inplace=True)    )    (cv2): Conv(      (conv): Conv2d(384, 192, kernel_size=(1, 1), stride=(1, 1), bias=False)      (bn): BatchNorm2d(192, eps=0.001, momentum=0.03, affine=True, track_running_stats=True)      (act): SiLU(inplace=True)    )    (cv3): Conv(      (conv): Conv2d(384, 384, kernel_size=(1, 1), stride=(1, 1), bias=False)      (bn): BatchNorm2d(384, eps=0.001, momentum=0.03, affine=True, track_running_stats=True)      (act): SiLU(inplace=True)    )    (m): Sequential(      (0): Bottleneck(        (cv1): Conv(          (conv): Conv2d(192, 192, kernel_size=(1, 1), stride=(1, 1), bias=False)          (bn): BatchNorm2d(192, eps=0.001, momentum=0.03, affine=True, track_running_stats=True)          (act): SiLU(inplace=True)        )        (cv2): Conv(          (conv): Conv2d(192, 192, kernel_size=(3, 3), stride=(1, 1), padding=(1, 1), bias=False)          (bn): BatchNorm2d(192, eps=0.001, momentum=0.03, affine=True, track_running_stats=True)          (act): SiLU(inplace=True)        )      )      (1): Bottleneck(        (cv1): Conv(          (conv): Conv2d(192, 192, kernel_size=(1, 1), stride=(1, 1), bias=False)          (bn): BatchNorm2d(192, eps=0.001, momentum=0.03, affine=True, track_running_stats=True)          (act): SiLU(inplace=True)        )        (cv2): Conv(          (conv): Conv2d(192, 192, kernel_size=(3, 3), stride=(1, 1), padding=(1, 1), bias=False)          (bn): BatchNorm2d(192, eps=0.001, momentum=0.03, affine=True, track_running_stats=True)          (act): SiLU(inplace=True)        )      )      (2): Bottleneck(        (cv1): Conv(          (conv): Conv2d(192, 192, kernel_size=(1, 1), stride=(1, 1), bias=False)          (bn): BatchNorm2d(192, eps=0.001, momentum=0.03, affine=True, track_running_stats=True)          (act): SiLU(inplace=True)        )        (cv2): Conv(          (conv): Conv2d(192, 192, kernel_size=(3, 3), stride=(1, 1), padding=(1, 1), bias=False)          (bn): BatchNorm2d(192, eps=0.001, momentum=0.03, affine=True, track_running_stats=True)          (act): SiLU(inplace=True)        )      )      (3): Bottleneck(        (cv1): Conv(          (conv): Conv2d(192, 192, kernel_size=(1, 1), stride=(1, 1), bias=False)          (bn): BatchNorm2d(192, eps=0.001, momentum=0.03, affine=True, track_running_stats=True)          (act): SiLU(inplace=True)        )        (cv2): Conv(          (conv): Conv2d(192, 192, kernel_size=(3, 3), stride=(1, 1), padding=(1, 1), bias=False)          (bn): BatchNorm2d(192, eps=0.001, momentum=0.03, affine=True, track_running_stats=True)          (act): SiLU(inplace=True)        )      )      (4): Bottleneck(        (cv1): Conv(          (conv): Conv2d(192, 192, kernel_size=(1, 1), stride=(1, 1), bias=False)          (bn): BatchNorm2d(192, eps=0.001, momentum=0.03, affine=True, track_running_stats=True)          (act): SiLU(inplace=True)        )        (cv2): Conv(          (conv): Conv2d(192, 192, kernel_size=(3, 3), stride=(1, 1), padding=(1, 1), bias=False)          (bn): BatchNorm2d(192, eps=0.001, momentum=0.03, affine=True, track_running_stats=True)          (act): SiLU(inplace=True)        )      )      (5): Bottleneck(        (cv1): Conv(          (conv): Conv2d(192, 192, kernel_size=(1, 1), stride=(1, 1), bias=False)          (bn): BatchNorm2d(192, eps=0.001, momentum=0.03, affine=True, track_running_stats=True)          (act): SiLU(inplace=True)        )        (cv2): Conv(          (conv): Conv2d(192, 192, kernel_size=(3, 3), stride=(1, 1), padding=(1, 1), bias=False)          (bn): BatchNorm2d(192, eps=0.001, momentum=0.03, affine=True, track_running_stats=True)          (act): SiLU(inplace=True)        )      )    )  )  (7): Conv(    (conv): Conv2d(384, 768, kernel_size=(3, 3), stride=(2, 2), padding=(1, 1), bias=False)    (bn): BatchNorm2d(768, eps=0.001, momentum=0.03, affine=True, track_running_stats=True)    (act): SiLU(inplace=True)  )  (8): C3(    (cv1): Conv(      (conv): Conv2d(768, 384, kernel_size=(1, 1), stride=(1, 1), bias=False)      (bn): BatchNorm2d(384, eps=0.001, momentum=0.03, affine=True, track_running_stats=True)      (act): SiLU(inplace=True)    )    (cv2): Conv(      (conv): Conv2d(768, 384, kernel_size=(1, 1), stride=(1, 1), bias=False)      (bn): BatchNorm2d(384, eps=0.001, momentum=0.03, affine=True, track_running_stats=True)      (act): SiLU(inplace=True)    )    (cv3): Conv(      (conv): Conv2d(768, 768, kernel_size=(1, 1), stride=(1, 1), bias=False)      (bn): BatchNorm2d(768, eps=0.001, momentum=0.03, affine=True, track_running_stats=True)      (act): SiLU(inplace=True)    )    (m): Sequential(      (0): Bottleneck(        (cv1): Conv(          (conv): Conv2d(384, 384, kernel_size=(1, 1), stride=(1, 1), bias=False)          (bn): BatchNorm2d(384, eps=0.001, momentum=0.03, affine=True, track_running_stats=True)          (act): SiLU(inplace=True)        )        (cv2): Conv(          (conv): Conv2d(384, 384, kernel_size=(3, 3), stride=(1, 1), padding=(1, 1), bias=False)          (bn): BatchNorm2d(384, eps=0.001, momentum=0.03, affine=True, track_running_stats=True)          (act): SiLU(inplace=True)        )      )      (1): Bottleneck(        (cv1): Conv(          (conv): Conv2d(384, 384, kernel_size=(1, 1), stride=(1, 1), bias=False)          (bn): BatchNorm2d(384, eps=0.001, momentum=0.03, affine=True, track_running_stats=True)          (act): SiLU(inplace=True)        )        (cv2): Conv(          (conv): Conv2d(384, 384, kernel_size=(3, 3), stride=(1, 1), padding=(1, 1), bias=False)          (bn): BatchNorm2d(384, eps=0.001, momentum=0.03, affine=True, track_running_stats=True)          (act): SiLU(inplace=True)        )      )    )  )  (9): SPPF(    (cv1): Conv(      (conv): Conv2d(768, 384, kernel_size=(1, 1), stride=(1, 1), bias=False)      (bn): BatchNorm2d(384, eps=0.001, momentum=0.03, affine=True, track_running_stats=True)      (act): SiLU(inplace=True)    )    (cv2): Conv(      (conv): Conv2d(1536, 768, kernel_size=(1, 1), stride=(1, 1), bias=False)      (bn): BatchNorm2d(768, eps=0.001, momentum=0.03, affine=True, track_running_stats=True)      (act): SiLU(inplace=True)    )    (m): MaxPool2d(kernel_size=5, stride=1, padding=2, dilation=1, ceil_mode=False)  )  (10): Conv(    (conv): Conv2d(768, 384, kernel_size=(1, 1), stride=(1, 1), bias=False)    (bn): BatchNorm2d(384, eps=0.001, momentum=0.03, affine=True, track_running_stats=True)    (act): SiLU(inplace=True)  )  (11): Upsample(scale_factor=2.0, mode=nearest)  (12): Concat()  (13): C3(    (cv1): Conv(      (conv): Conv2d(768, 192, kernel_size=(1, 1), stride=(1, 1), bias=False)      (bn): BatchNorm2d(192, eps=0.001, momentum=0.03, affine=True, track_running_stats=True)      (act): SiLU(inplace=True)    )    (cv2): Conv(      (conv): Conv2d(768, 192, kernel_size=(1, 1), stride=(1, 1), bias=False)      (bn): BatchNorm2d(192, eps=0.001, momentum=0.03, affine=True, track_running_stats=True)      (act): SiLU(inplace=True)    )    (cv3): Conv(      (conv): Conv2d(384, 384, kernel_size=(1, 1), stride=(1, 1), bias=False)      (bn): BatchNorm2d(384, eps=0.001, momentum=0.03, affine=True, track_running_stats=True)      (act): SiLU(inplace=True)    )    (m): Sequential(      (0): Bottleneck(        (cv1): Conv(          (conv): Conv2d(192, 192, kernel_size=(1, 1), stride=(1, 1), bias=False)          (bn): BatchNorm2d(192, eps=0.001, momentum=0.03, affine=True, track_running_stats=True)          (act): SiLU(inplace=True)        )        (cv2): Conv(          (conv): Conv2d(192, 192, kernel_size=(3, 3), stride=(1, 1), padding=(1, 1), bias=False)          (bn): BatchNorm2d(192, eps=0.001, momentum=0.03, affine=True, track_running_stats=True)          (act): SiLU(inplace=True)        )      )      (1): Bottleneck(        (cv1): Conv(          (conv): Conv2d(192, 192, kernel_size=(1, 1), stride=(1, 1), bias=False)          (bn): BatchNorm2d(192, eps=0.001, momentum=0.03, affine=True, track_running_stats=True)          (act): SiLU(inplace=True)        )        (cv2): Conv(          (conv): Conv2d(192, 192, kernel_size=(3, 3), stride=(1, 1), padding=(1, 1), bias=False)          (bn): BatchNorm2d(192, eps=0.001, momentum=0.03, affine=True, track_running_stats=True)          (act): SiLU(inplace=True)        )      )    )  )  (14): Conv(    (conv): Conv2d(384, 192, kernel_size=(1, 1), stride=(1, 1), bias=False)    (bn): BatchNorm2d(192, eps=0.001, momentum=0.03, affine=True, track_running_stats=True)    (act): SiLU(inplace=True)  )  (15): Upsample(scale_factor=2.0, mode=nearest)  (16): Concat()  (17): C3(    (cv1): Conv(      (conv): Conv2d(384, 96, kernel_size=(1, 1), stride=(1, 1), bias=False)      (bn): BatchNorm2d(96, eps=0.001, momentum=0.03, affine=True, track_running_stats=True)      (act): SiLU(inplace=True)    )    (cv2): Conv(      (conv): Conv2d(384, 96, kernel_size=(1, 1), stride=(1, 1), bias=False)      (bn): BatchNorm2d(96, eps=0.001, momentum=0.03, affine=True, track_running_stats=True)      (act): SiLU(inplace=True)    )    (cv3): Conv(      (conv): Conv2d(192, 192, kernel_size=(1, 1), stride=(1, 1), bias=False)      (bn): BatchNorm2d(192, eps=0.001, momentum=0.03, affine=True, track_running_stats=True)      (act): SiLU(inplace=True)    )    (m): Sequential(      (0): Bottleneck(        (cv1): Conv(          (conv): Conv2d(96, 96, kernel_size=(1, 1), stride=(1, 1), bias=False)          (bn): BatchNorm2d(96, eps=0.001, momentum=0.03, affine=True, track_running_stats=True)          (act): SiLU(inplace=True)        )        (cv2): Conv(          (conv): Conv2d(96, 96, kernel_size=(3, 3), stride=(1, 1), padding=(1, 1), bias=False)          (bn): BatchNorm2d(96, eps=0.001, momentum=0.03, affine=True, track_running_stats=True)          (act): SiLU(inplace=True)        )      )      (1): Bottleneck(        (cv1): Conv(          (conv): Conv2d(96, 96, kernel_size=(1, 1), stride=(1, 1), bias=False)          (bn): BatchNorm2d(96, eps=0.001, momentum=0.03, affine=True, track_running_stats=True)          (act): SiLU(inplace=True)        )        (cv2): Conv(          (conv): Conv2d(96, 96, kernel_size=(3, 3), stride=(1, 1), padding=(1, 1), bias=False)          (bn): BatchNorm2d(96, eps=0.001, momentum=0.03, affine=True, track_running_stats=True)          (act): SiLU(inplace=True)        )      )    )  )  (18): Conv(    (conv): Conv2d(192, 192, kernel_size=(3, 3), stride=(2, 2), padding=(1, 1), bias=False)    (bn): BatchNorm2d(192, eps=0.001, momentum=0.03, affine=True, track_running_stats=True)    (act): SiLU(inplace=True)  )  (19): Concat()  (20): C3(    (cv1): Conv(      (conv): Conv2d(384, 192, kernel_size=(1, 1), stride=(1, 1), bias=False)      (bn): BatchNorm2d(192, eps=0.001, momentum=0.03, affine=True, track_running_stats=True)      (act): SiLU(inplace=True)    )    (cv2): Conv(      (conv): Conv2d(384, 192, kernel_size=(1, 1), stride=(1, 1), bias=False)      (bn): BatchNorm2d(192, eps=0.001, momentum=0.03, affine=True, track_running_stats=True)      (act): SiLU(inplace=True)    )    (cv3): Conv(      (conv): Conv2d(384, 384, kernel_size=(1, 1), stride=(1, 1), bias=False)      (bn): BatchNorm2d(384, eps=0.001, momentum=0.03, affine=True, track_running_stats=True)      (act): SiLU(inplace=True)    )    (m): Sequential(      (0): Bottleneck(        (cv1): Conv(          (conv): Conv2d(192, 192, kernel_size=(1, 1), stride=(1, 1), bias=False)          (bn): BatchNorm2d(192, eps=0.001, momentum=0.03, affine=True, track_running_stats=True)          (act): SiLU(inplace=True)        )        (cv2): Conv(          (conv): Conv2d(192, 192, kernel_size=(3, 3), stride=(1, 1), padding=(1, 1), bias=False)          (bn): BatchNorm2d(192, eps=0.001, momentum=0.03, affine=True, track_running_stats=True)          (act): SiLU(inplace=True)        )      )      (1): Bottleneck(        (cv1): Conv(          (conv): Conv2d(192, 192, kernel_size=(1, 1), stride=(1, 1), bias=False)          (bn): BatchNorm2d(192, eps=0.001, momentum=0.03, affine=True, track_running_stats=True)          (act): SiLU(inplace=True)        )        (cv2): Conv(          (conv): Conv2d(192, 192, kernel_size=(3, 3), stride=(1, 1), padding=(1, 1), bias=False)          (bn): BatchNorm2d(192, eps=0.001, momentum=0.03, affine=True, track_running_stats=True)          (act): SiLU(inplace=True)        )      )    )  )  (21): Conv(    (conv): Conv2d(384, 384, kernel_size=(3, 3), stride=(2, 2), padding=(1, 1), bias=False)    (bn): BatchNorm2d(384, eps=0.001, momentum=0.03, affine=True, track_running_stats=True)    (act): SiLU(inplace=True)  )  (22): Concat()  (23): C3(    (cv1): Conv(      (conv): Conv2d(768, 384, kernel_size=(1, 1), stride=(1, 1), bias=False)      (bn): BatchNorm2d(384, eps=0.001, momentum=0.03, affine=True, track_running_stats=True)      (act): SiLU(inplace=True)    )    (cv2): Conv(      (conv): Conv2d(768, 384, kernel_size=(1, 1), stride=(1, 1), bias=False)      (bn): BatchNorm2d(384, eps=0.001, momentum=0.03, affine=True, track_running_stats=True)      (act): SiLU(inplace=True)    )    (cv3): Conv(      (conv): Conv2d(768, 768, kernel_size=(1, 1), stride=(1, 1), bias=False)      (bn): BatchNorm2d(768, eps=0.001, momentum=0.03, affine=True, track_running_stats=True)      (act): SiLU(inplace=True)    )    (m): Sequential(      (0): Bottleneck(        (cv1): Conv(          (conv): Conv2d(384, 384, kernel_size=(1, 1), stride=(1, 1), bias=False)          (bn): BatchNorm2d(384, eps=0.001, momentum=0.03, affine=True, track_running_stats=True)          (act): SiLU(inplace=True)        )        (cv2): Conv(          (conv): Conv2d(384, 384, kernel_size=(3, 3), stride=(1, 1), padding=(1, 1), bias=False)          (bn): BatchNorm2d(384, eps=0.001, momentum=0.03, affine=True, track_running_stats=True)          (act): SiLU(inplace=True)        )      )      (1): Bottleneck(        (cv1): Conv(          (conv): Conv2d(384, 384, kernel_size=(1, 1), stride=(1, 1), bias=False)          (bn): BatchNorm2d(384, eps=0.001, momentum=0.03, affine=True, track_running_stats=True)          (act): SiLU(inplace=True)        )        (cv2): Conv(          (conv): Conv2d(384, 384, kernel_size=(3, 3), stride=(1, 1), padding=(1, 1), bias=False)          (bn): BatchNorm2d(384, eps=0.001, momentum=0.03, affine=True, track_running_stats=True)          (act): SiLU(inplace=True)        )      )    )  )  (24): Detect(    (m): ModuleList(      (0): Conv2d(192, 603, kernel_size=(1, 1), stride=(1, 1))      (1): Conv2d(384, 603, kernel_size=(1, 1), stride=(1, 1))      (2): Conv2d(768, 603, kernel_size=(1, 1), stride=(1, 1))    )  ))</code></pre>]]></content>
    
    
    <summary type="html">&lt;blockquote&gt;
&lt;p&gt;本篇主要记录学习yolov5+csl旋转目标检测的原理，主要是探究代码中pred的生成过程。参考知乎 略略略 &lt;a href=&quot;https://zhuanlan.zhihu.com/p/358441134%EF%BC%9B&quot;&gt;https://zhuanlan.zhihu.com/p/358441134；&lt;/a&gt; yangxue &lt;a href=&quot;https://zhuanlan.zhihu.com/p/111493759&quot;&gt;https://zhuanlan.zhihu.com/p/111493759&lt;/a&gt;  &lt;/p&gt;
…
