…
pre><p><img src="https://s4.ax1x.com/2022/02/24/bioRv4.png" alt="图片描述"></p><h4 id="2-推理pred">2.推理pred</h4><p>  首先<strong><a href="http://train.py">train.py</a></strong>这里改变图片尺寸（/255）作归一化，给tensor处理，同时改为浮点类型，shape不变<br><img src="https://s4.ax1x.com/2022/02/26/bZ11U0.png" alt="图片描述"><br>  这里把图片（图片<strong>shape</strong>[b, 3, height, width], RGB）喂给网络,<br><img src="https://s4.ax1x.com/2022/02/25/bkRZO1.png" alt="图片描述"><br>  然后在<strong>forward</strong>里迭代网络的各个层（卷积、C3等）<br><img src="https://s4.ax1x.com/2022/02/25/bkRs6s.png" alt="图片描述"><br>  经过第一层卷积：</p><pre><code class="language-python">Conv(  (conv): Conv2d(3, 48, kernel_size=(6, 6), stride=(2, 2), padding=(2, 2), bias=False)  (bn): BatchNorm2d(48, eps=0.001, momentum=0.03, affine=True, track_running_stats=True)  (act): SiLU(inplace=True))</code></pre><p>  之后x的shape变成如图（2， 48， 512，512）<br><img src="https://s4.ax1x.com/2022/02/26/bZ8emj.png" alt="图片描述"><br>  第二层网络结构：经过第二层网络之后的x的shape:(2, 96, 256, 256)</p><pre><code class="language-python">Conv(  (conv): Conv2d(48, 96, kernel_size=(3, 3), stride=(2, 2), padding=(1, 1), bias=False)  (bn): BatchNorm2d(96, eps=0.001, momentum=0.03, affine=True, track_running_stats=True)  (act): SiLU(inplace=True))</code></pre><p><img src="https://s4.ax1x.com/2022/02/26/bZ8rcD.png" alt="图片描述"><br>  依此类推，需要注意的是在第12层<strong>concat</strong>层，将当前层（即上一层输出的x）和m.f参数指定的之前保存的某一层结合作list<br><img src="https://s4.ax1x.com/2022/02/26/bZ8bHs.png" alt="图片描述"><br>  在第16层的时候同样，将当前层和m.f参数指定的之前保存的某一层结合作list，下面还有concat层，不作记录<br>  共25层（整体网络结构见上一篇，这里不再给出），下面是最后一层detect层之前，可以看到，过程中根据self.save参数保存了部分层的输出，并且根据m.f参数，指定当前层的输入是单一的上一层输出还是和之前层组成的list<br><img src="https://s4.ax1x.com/2022/02/26/bZGSvF.png" alt="图片描述"><br>  比如detect层的m.f参数是如下：<br><img src="https://s4.ax1x.com/2022/02/26/bZGmvD.png" alt="图片描述"><br>  则意味着要把y中这几个层的输出联合成list<br><img src="https://s4.ax1x.com/2022/02/26/bZG35t.png" alt="图片描述"><br>  detect层内容：</p><pre><code class="language-python">Detect(  (m): ModuleList(    (0): Conv2d(192, 603, kernel_size=(1, 1), stride=(1, 1))    (1): Conv2d(384, 603, kernel_size=(1, 1), stride=(1, 1))    (2): Conv2d(768, 603, kernel_size=(1, 1), stride=(1, 1))  ))</code></pre><p>  分别对三个尺度的tensor作卷积，经过detect层之后三个尺度的输出：<br><img src="https://s4.ax1x.com/2022/02/26/bZJUW6.png" alt="图片描述"></p><h5 id="2-1-detect层细节处理">2.1 detect层细节处理</h5><p>  下面是detect层处理的一些细节：<br>  首先进入forward，按lawyer（3层）操作，经过第一次卷积之后x[0]变成如图：<br><img src="https://s4.ax1x.com/2022/02/26/bZYx8P.png" alt="图片描述"><br>  这里把x[i]进行重组（我的理解相当于一个线性层，但不完全一样）：
…
ax1x.com/2022/02/26/bZYx8P.png" alt="图片描述"><br>  这里把x[i]进行重组（我的理解相当于一个线性层，但不完全一样）：<br><img src="https://s4.ax1x.com/2022/02/26/bZtA5n.png" alt="图片描述"><br>  201是self.no参数，在detect类中定义（如下图），代表着[16个类别，cx,cy,l,s,theta，180个gaussian_theta_labels]，值得注意的是，这201个参数是相对于一个anchor来说的。这里2是bz，3是每一个grid负责的anchor数量，即一个grid产生3个anchor，然后每一张图片，按3个尺度，分成128×128，64×64，32×32个grid。<br><img src="https://s4.ax1x.com/2022/02/26/bZt0VH.png" alt="图片描述"></p><h3 id="二、网络结构">二、网络结构</h3><p>  这是<strong>self.model</strong>全部内容，共25层，最后一层<strong>detect</strong>层：</p><pre><code class="language-python">Sequential(  (0): Conv(    (conv): Conv2d(3, 48, kernel_size=(6, 6), stride=(2, 2), padding=(2, 2), bias=False)    (bn): BatchNorm2d(48, eps=0.001, momentum=0.03, affine=True, track_running_stats=True)    (act): SiLU(inplace=True)  )  (1): Conv(    (conv): Conv2d(48, 96, kernel_size=(3, 3), stride=(2, 2), padding=(1, 1), bias=False)    (bn): BatchNorm2d(96, eps=0.001, momentum=0.03, affine=True, track_running_stats=True)    (act): SiLU(inplace=True)  )  (2): C3(    (cv1): Conv(      (conv): Conv2d(96, 48, kernel_size=(1, 1), stride=(1, 1), bias=False)      (bn): BatchNorm2d(48, eps=0.001, momentum=0.03, affine=True, track_running_stats=True)      (act): SiLU(inplace=True)    )    (cv2): Conv(      (conv): Conv2d(96, 48, kernel_size=(1, 1), stride=(1, 1), bias=False)      (bn): BatchNorm2d(48, eps=0.001, momentum=0.03, affine=True, track_running_stats=True)      (act): SiLU(inplace=True)    )    (cv3): Conv(      (conv): Conv2d(96, 96, kernel_size=(1, 1), stride=(1, 1), bias=False)      (bn): BatchNorm2d(96, eps=0.001, momentum=0.03, affine=True, track_running_stats=True)      (act): SiLU(inplace=True)    )    (m): Sequential(      (0): Bottleneck(        (cv1): Conv(          (conv): Conv2d(48, 48, kernel_size=(1, 1), stride=(1, 1), bias=False)          (bn): BatchNorm2d(48, eps=0.001, momentum=0.03, affine=True, track_running_stats=True)          (act): SiLU(inplace=True)        )        (cv2): Conv(          (conv): Conv2d(48, 48, kernel_size=(3, 3), stride=(1, 1), padding=(1, 1), bias=False)          (bn): BatchNorm2d(48, eps=0.001, momentum=0.03, affine=True, track_running_stats=True)          (act): SiLU(inplace=True)        )      )      (1): Bottleneck(        (cv1): Conv(          (conv): Conv2d(48, 48, kernel_size=(1, 1), stride=(1, 1), bias=False)          (bn): BatchNorm2d(48, eps=0.001, momentum=0.03, affine=True, track_running_stats=True)          (act): SiLU(inplace=True)        )        (cv2): Conv(          (conv): Conv2d(48, 48, kernel_size=(3, 3), stride=(1, 1), padding=(1, 1), bias=False)          (bn): BatchNorm2d(48, eps=0.001, momentum=0.03, affine=True, track_running_stats=True)          (act): SiLU(inplace=True)        )      )    )  )  (3): Conv(    (conv): Conv2d(96, 192, kernel_size=(3, 3), stride=(2, 2), padding=(1, 1), bias=False)    (bn): BatchNorm2d(192, eps=0.001, momentum=0.03, affine=True, track_running_stats=True)    (act): SiLU(inplace=True)  )  (4): C3(    (cv1): Conv(      (conv): Conv2d(192, 96, kernel_size=(1, 1), stride=(1, 1), bias=False)      (bn): BatchNorm2d(96, eps=0.001, momentum=0.03, affine=True, track_running_stats=True)      (act): SiLU(inplace=True)    )    (cv2): Conv(      (conv): Conv2d(192, 96, kernel_size=(1, 1), stride=(1, 1), bias=False)      (bn): BatchNorm2d(96, eps=0.001, momentum=0.03, affine=True, track_running_stats=True)      (act): SiLU(inplace=True)    )    (cv3): Conv(      (conv): Conv2d(192, 192, kernel_size=(1, 1), stride=(1, 1), bias=False)      (bn): BatchNorm2d(192, eps=0.001, momentum=0.03, affine=True, track_running_stats=True)      (act): SiLU(inplace=True)    )    (m): Sequential(      (0): Bottleneck(        (cv1): Conv(          (conv): Conv2d(96, 96, kernel_size=(1, 1), stride=(1, 1), bias=False)          (bn): BatchNorm2d(96, eps=0.001, momentum=0.03, affine=True, track_running_stats=True)          (act): SiLU(inplace=True)        )        (cv2): Conv(          (conv): Conv2d(96, 96, kernel_size=(3, 3), stride=(1, 1), padding=(1, 1), bias=False)          (bn): BatchNorm2d(96, eps=0.001, momentum=0.03, affine=True, track_running_stats=True)          (act): SiLU(inplace=True)        )      )      (1): Bottleneck(        (cv1): Conv(          (conv): Conv2d(96, 96, kernel_size=(1, 1), stride=(1, 1), bias=False)          (bn): BatchNorm2d(96, eps=0.001, momentum=0.03, affine=True, track_running_stats=True)          (act): SiLU(inplace=True)        )        (cv2): Conv(          (conv): Conv2d(96, 96, kernel_size=(3, 3), stride=(1, 1), padding=(1, 1), bias=False)          (bn): BatchNorm2d(96, eps=0.001, momentum=0.03, affine=True, track_running_stats=True)          (act): SiLU(inplace=True)        )      )      (2): Bottleneck(        (cv1): Conv(          (conv): Conv2d(96, 96, kernel_size=(1, 1), stride=(1, 1), bias=False)          (bn): BatchNorm2d(96, eps=0.001, momentum=0.03, affine=True, track_running_stats=True)          (act): SiLU(inplace=True)        )        (cv2): Conv(          (conv): Conv2d(96, 96, kernel_size=(3, 3), stride=(1, 1), padding=(1, 1), bias=False)          (bn): BatchNorm2d(96, eps=0.001, momentum=0.03, affine=True, track_running_stats=True)          (act): SiLU(inplace=True)        )      )      (3): Bottleneck(        (cv1): Conv(          (conv): Conv2d(96, 96, kernel_size=(1, 1), stride=(1, 1), bias=False)          (bn): BatchNorm2d(96, eps=0.001, momentum=0.03, affine=True, track_running_stats=True)          (act): SiLU(inplace=True)        )        (cv2): Conv(          (conv): Conv2d(96, 96, kernel_size=(3, 3), stride=(1, 1), padding=(1, 1), bias=False)          (bn): BatchNorm2d(96, eps=0.001, momentum=0.03, affine=True, track_running_stats=True)          (act): SiLU(inplace=True)        )      )    )  )  (5): Conv(    (conv): Conv2d(192, 384, kernel_size=(3, 3), stride=(2, 2), padding=(1, 1), bias=False)    (bn): BatchNorm2d(384, eps=0.001, momentum=0.03, affine=True, track_running_stats=True)    (act): SiLU(inplace=True)  )  (6): C3(    (cv1): Conv(      (conv): Conv2d(384, 192, kernel_size=(1, 1), stride=(1, 1), bias=False)      (bn): BatchNorm2d(192, eps=0.001, momentum=0.03, affine=True, track_running_stats=True)      (act): SiLU(inplace=True)    )    (cv2): Conv(      (conv): Conv2d(384, 192, kernel_size=(1, 1), stride=(1, 1), bias=False)      (bn): BatchNorm2d(192, eps=0.001, momentum=0.03, affine=True, track_running_stats=True)      (act): SiLU(inplace=True)    )    (cv3): Conv(      (conv): Conv2d(384, 384, kernel_size=(1, 1), stride=(1, 1), bias=False)      (bn): BatchNorm2d(384, eps=0.001, momentum=0.03, affine=True, track_running_stats=True)      (act): SiLU(inplace=True)    )    (m): Sequential(      (0): Bottleneck(        (cv1): Conv(          (conv): Conv2d(192, 192, kernel_size=(1, 1), stride=(1, 1), bias=False)          (bn): BatchNorm2d(192, eps=0.001, momentum=0.03, affine=True, track_running_stats=True)          (act): SiLU(inplace=True)        )        (cv2): Conv(          (conv): Conv2d(192, 192, kernel_size=(3, 3), stride=(1, 1), padding=(1, 1), bias=False)          (bn): BatchNorm2d(192, eps=0.001, momentum=0.03, affine=True, track_running_stats=True)          (act): SiLU(inplace=True)        )      )      (1): Bottleneck(        (cv1): Conv(          (conv): Conv2d(192, 192, kernel_size=(1, 1), stride=(1, 1), bias=False)          (bn): BatchNorm2d(192, eps=0.001, momentum=0.03, affine=True, track_running_stats=True)          (act): SiLU(inplace=True)        )        (cv2): Conv(          (conv): Conv2d(192, 192, kernel_size=(3, 3), stride=(1, 1), padding=(1, 1), bias=False)          (bn): BatchNorm2d(192, eps=0.001, momentum=0.03, affine=True, track_running_stats=True)          (act): SiLU(inplace=True)        )      )      (2): Bottleneck(        (cv1): Conv(          (conv): Conv2d(192, 192, kernel_size=(1, 1), stride=(1, 1), bias=False)          (bn): BatchNorm2d(192, eps=0.001, momentum=0.03, affine=True, track_running_stats=True)          (act): SiLU(inplace=True)        )        (cv2): Conv(          (conv): Conv2d(192, 192, kernel_size=(3, 3), stride=(1, 1), padding=(1, 1), bias=False)          (bn): BatchNorm2d(192, eps=0.001, momentum=0.03, affine=True, track_running_stats=True)          (act): SiLU(inplace=True)        )      )      (3): Bottleneck(        (cv1): Conv(          (conv): Conv2d(192, 192, kernel_size=(1, 1), stride=(1, 1), bias=False)          (bn): BatchNorm2d(192, eps=0.001, momentum=0.03, affine=True, track_running_stats=True)          (act): SiLU(inplace=True)        )        (cv2): Conv(          (conv): Conv2d(192, 192, kernel_size=(3, 3), stride=(1, 1), padding=(1, 1), bias=False)          (bn): BatchNorm2d(192, eps=0.001, momentum=0.03, affine=True, track_running_stats=True)          (act): SiLU(inplace=True)        )      )      (4): Bottleneck(        (cv1): Conv(          (conv): Conv2d(192, 192, kernel_size=(1, 1), stride=(1, 1), bias=False)          (bn): BatchNorm2d(192, eps=0.001, momentum=0.03, affine=True, track_running_stats=True)          (act): SiLU(inplace=True)        )        (cv2): Conv(          (conv): Conv2d(192, 192, kernel_size=(3, 3), stride=(1, 1), padding=(1, 1), bias=False)          (bn): BatchNorm2d(192, eps=0.001, momentum=0.03, affine=True, track_running_stats=True)          (act): SiLU(inplace=True)        )      )      (5): Bottleneck(        (cv1): Conv(          (conv): Conv2d(192, 192, kernel_size=(1, 1), stride=(1, 1), bias=False)          (bn): BatchNorm2d(192, eps=0.001, momentum=0.03, affine=True, track_running_stats=True)          (act): SiLU(inplace=True)        )        (cv2): Conv(          (conv): Conv2d(192, 192, kernel_size=(3, 3), stride=(1, 1), padding=(1, 1), bias=False)          (bn): BatchNorm2d(192, eps=0.001, momentum=0.03, affine=True, track_running_stats=True)          (act): SiLU(inplace=True)        )      )    )  )  (7): Conv(    (conv): Conv2d(384, 768, kernel_size=(3, 3), stride=(2, 2), padding=(1, 1), bias=False)    (bn): BatchNorm2d(768, eps=0.001, momentum=0.03, affine=True, track_running_stats=True)    (act): SiLU(inplace=True)  )  (8): C3(    (cv1): Conv(      (conv): Conv2d(768, 384, kernel_size=(1, 1), stride=(1, 1), bias=False)      (bn): BatchNorm2d(384, eps=0.001, momentum=0.03, affine=True, track_running_stats=True)      (act): SiLU(inplace=True)    )    (cv2): Conv(      (conv): Conv2d(768, 384, kernel_size=(1, 1), stride=(1, 1), bias=False)      (bn): BatchNorm2d(384, eps=0.001, momentum=0.03, affine=True, track_running_stats=True)      (act): SiLU(inplace=True)    )    (cv3): Conv(      (conv): Conv2d(768, 768, kernel_size=(1, 1), stride=(1, 1), bias=False)      (bn): BatchNorm2d(768, eps=0.001, momentum=0.03, affine=True, track_running_stats=True)      (act): SiLU(inplace=True)    )    (m): Sequential(      (0): Bottleneck(        (cv1): Conv(          (conv): Conv2d(384, 384, kernel_size=(1, 1), stride=(1, 1), bias=False)          (bn): BatchNorm2d(384, eps=0.001, momentum=0.03, affine=True, track_running_stats=True)          (act): SiLU(inplace=True)        )        (cv2): Conv(          (conv): Conv2d(384, 384, kernel_size=(3, 3), stride=(1, 1), padding=(1, 1), bias=False)          (bn): BatchNorm2d(384, eps=0.001, momentum=0.03, affine=True, track_running_stats=True)          (act): SiLU(inplace=True)        )      )      (1): Bottleneck(        (cv1): Conv(          (conv): Conv2d(384, 384, kernel_size=(1, 1), stride=(1, 1), bias=False)          (bn): BatchNorm2d(384, eps=0.001, momentum=0.03, affine=True, track_running_stats=True)          (act): SiLU(inplace=True)        )        (cv2): Conv(          (conv): Conv2d(384, 384, kernel_size=(3, 3), stride=(1, 1), padding=(1, 1), bias=False)          (bn): BatchNorm2d(384, eps=0.001, momentum=0.03, affine=True, track_running_stats=True)          (act): SiLU(inplace=True)        )      )    )  )  (9): SPPF(    (cv1): Conv(      (conv): Conv2d(768, 384, kernel_size=(1, 1), stride=(1, 1), bias=False)      (bn): BatchNorm2d(384, eps=0.001, momentum=0.03, affine=True, track_running_stats=True)      (act): SiLU(inplace=True)    )    (cv2): Conv(      (conv): Conv2d(1536, 768, kernel_size=(1, 1), stride=(1, 1), bias=False)      (bn): BatchNorm2d(768, eps=0.001, momentum=0.03, affine=True, track_running_stats=True)      (act): SiLU(inplace=True)    )    (m): MaxPool2d(kernel_size=5, stride=1, padding=2, dilation=1, ceil_mode=False)  )  (10): Conv(    (conv): Conv2d(768, 384, kernel_size=(1, 1), stride=(1, 1), bias=False)    (bn): BatchNorm2d(384, eps=0.001, momentum=0.03, affine=True, track_running_stats=True)    (act): SiLU(inplace=True)  )  (11): Upsample(scale_factor=2.0, mode=nearest)  (12): Concat()  (13): C3(    (cv1): Conv(      (conv): Conv2d(768, 192, kernel_size=(1, 1), stride=(1, 1), bias=False)      (bn): BatchNorm2d(192, eps=0.001, momentum=0.03, affine=True, track_running_stats=True)      (act): SiLU(inplace=True)    )    (cv2): Conv(      (conv): Conv2d(768, 192, kernel_size=(1, 1), stride=(1, 1), bias=False)      (bn): BatchNorm2d(192, eps=0.001, momentum=0.03, affine=True, track_running_stats=True)      (act): SiLU(inplace=True)    )    (cv3): Conv(      (conv): Conv2d(384, 384, kernel_size=(1, 1), stride=(1, 1), bias=False)      (bn): BatchNorm2d(384, eps=0.001, momentum=0.03, affine=True, track_running_stats=True)      (act): SiLU(inplace=True)    )    (m): Sequential(      (0): Bottleneck(        (cv1): Conv(          (conv): Conv2d(192, 192, kernel_size=(1, 1), stride=(1, 1), bias=False)          (bn): BatchNorm2d(192, eps=0.001, momentum=0.03, affine=True, track_running_stats=True)          (act): SiLU(inplace=True)        )        (cv2): Conv(          (conv): Conv2d(192, 192, kernel_size=(3, 3), stride=(1, 1), padding=(1, 1), bias=False)          (bn): BatchNorm2d(192, eps=0.001, momentum=0.03, affine=True, track_running_stats=True)          (act): SiLU(inplace=True)        )      )      (1): Bottleneck(        (cv1): Conv(          (conv): Conv2d(192, 192, kernel_size=(1, 1), stride=(1, 1), bias=False)          (bn): BatchNorm2d(192, eps=0.001, momentum=0.03, affine=True, track_running_stats=True)          (act): SiLU(inplace=True)        )        (cv2): Conv(          (conv): Conv2d(192, 192, kernel_size=(3, 3), stride=(1, 1), padding=(1, 1), bias=False)          (bn): BatchNorm2d(192, eps=0.001, momentum=0.03, affine=True, track_running_stats=True)          (act): SiLU(inplace=True)        )      )    )  )  (14): Conv(    (conv): Conv2d(384, 192, kernel_size=(1, 1), stride=(1, 1), bias=False)    (bn): BatchNorm2d(192, eps=0.001, momentum=0.03, affine=True, track_running_stats=True)    (act): SiLU(inplace=True)  )  (15): Upsample(scale_factor=2.0, mode=nearest)  (16): Concat()  (17): C3(    (cv1): Conv(      (conv): Conv2d(384, 96, kernel_size=(1, 1), stride=(1, 1), bias=False)      (bn): BatchNorm2d(96, eps=0.001, momentum=0.03, affine=True, track_running_stats=True)      (act): SiLU(inplace=True)    )    (cv2): Conv(      (conv): Conv2d(384, 96, kernel_size=(1, 1), stride=(1, 1), bias=False)      (bn): BatchNorm2d(96, eps=0.001, momentum=0.03, affine=True, track_running_stats=True)      (act): SiLU(inplace=True)    )    (cv3): Conv(      (conv): Conv2d(192, 192, kernel_size=(1, 1), stride=(1, 1), bias=False)      (bn): BatchNorm2d(192, eps=0.001, momentum=0.03, affine=True, track_running_stats=True)      (act): SiLU(inplace=True)    )    (m): Sequential(      (0): Bottleneck(        (cv1): Conv(          (conv): Conv2d(96, 96, kernel_size=(1, 1), stride=(1, 1), bias=False)          (bn): BatchNorm2d(96, eps=0.001, momentum=0.03, affine=True, track_running_stats=True)          (act): SiLU(inplace=True)        )        (cv2): Conv(          (conv): Conv2d(96, 96, kernel_size=(3, 3), stride=(1, 1), padding=(1, 1), bias=False)          (bn): BatchNorm2d(96, eps=0.001, momentum=0.03, affine=True, track_running_stats=True)          (act): SiLU(inplace=True)        )      )      (1): Bottleneck(        (cv1): Conv(          (conv): Conv2d(96, 96, kernel_size=(1, 1), stride=(1, 1), bias=False)          (bn): BatchNorm2d(96, eps=0.001, momentum=0.03, affine=True, track_running_stats=True)          (act): SiLU(inplace=True)        )        (cv2): Conv(          (conv): Conv2d(96, 96, kernel_size=(3, 3), stride=(1, 1), padding=(1, 1), bias=False)          (bn): BatchNorm2d(96, eps=0.001, momentum=0.03, affine=True, track_running_stats=True)          (act): SiLU(inplace=True)        )      )    )  )  (18): Conv(    (conv): Conv2d(192, 192, kernel_size=(3, 3), stride=(2, 2), padding=(1, 1), bias=False)    (bn): BatchNorm2d(192, eps=0.001, momentum=0.03, affine=True, track_running_stats=True)    (act): SiLU(inplace=True)  )  (19): Concat()  (20): C3(    (cv1): Conv(      (conv): Conv2d(384, 192, kernel_size=(1, 1), stride=(1, 1), bias=False)      (bn): BatchNorm2d(192, eps=0.001, momentum=0.03, affine=True, track_running_stats=True)      (act): SiLU(inplace=True)    )    (cv2): Conv(      (conv): Conv2d(384, 192, kernel_size=(1, 1), stride=(1, 1), bias=False)      (bn): BatchNorm2d(192, eps=0.001, momentum=0.03, affine=True, track_running_stats=True)      (act): SiLU(inplace=True)    )    (cv3): Conv(      (conv): Conv2d(384, 384, kernel_size=(1, 1), stride=(1, 1), bias=False)      (bn): BatchNorm2d(384, eps=0.001, momentum=0.03, affine=True, track_running_stats=True)      (act): SiLU(inplace=True)    )    (m): Sequential(      (0): Bottleneck(        (cv1): Conv(          (conv): Conv2d(192, 192, kernel_size=(1, 1), stride=(1, 1), bias=False)          (bn): BatchNorm2d(192, eps=0.001, momentum=0.03, affine=True, track_running_stats=True)          (act): SiLU(inplace=True)        )        (cv2): Conv(          (conv): Conv2d(192, 192, kernel_size=(3, 3), stride=(1, 1), padding=(1, 1), bias=False)          (bn): BatchNorm2d(192, eps=0.001, momentum=0.03, affine=True, track_running_stats=True)          (act): SiLU(inplace=True)        )      )      (1): Bottleneck(        (cv1): Conv(          (conv): Conv2d(192, 192, kernel_size=(1, 1), stride=(1, 1), bias=False)          (bn): BatchNorm2d(192, eps=0.001, momentum=0.03, affine=True, track_running_stats=True)          (act): SiLU(inplace=True)        )        (cv2): Conv(          (conv): Conv2d(192, 192, kernel_size=(3, 3), stride=(1, 1), padding=(1, 1), bias=False)          (bn): BatchNorm2d(192, eps=0.001, momentum=0.03, affine=True, track_running_stats=True)          (act): SiLU(inplace=True)        )      )    )  )  (21): Conv(    (conv): Conv2d(384, 384, kernel_size=(3, 3), stride=(2, 2), padding=(1, 1), bias=False)    (bn): BatchNorm2d(384, eps=0.001, momentum=0.03, affine=True, track_running_stats=True)    (act): SiLU(inplace=True)  )  (22): Concat()  (23): C3(    (cv1): Conv(      (conv): Conv2d(768, 384, kernel_size=(1, 1), stride=(1, 1), bias=False)      (bn): BatchNorm2d(384, eps=0.001, momentum=0.03, affine=True, track_running_stats=True)      (act): SiLU(inplace=True)    )    (cv2): Conv(      (conv): Conv2d(768, 384, kernel_size=(1, 1), stride=(1, 1), bias=False)      (bn): BatchNorm2d(384, eps=0.001, momentum=0.03, affine=True, track_running_stats=True)      (act): SiLU(inplace=True)    )    (cv3): Conv(      (conv): Conv2d(768, 768, kernel_size=(1, 1), stride=(1, 1), bias=False)      (bn): BatchNorm2d(768, eps=0.001, momentum=0.03, affine=True, track_running_stats=True)      (act): SiLU(inplace=True)    )    (m): Sequential(      (0): Bottleneck(        (cv1): Conv(          (conv): Conv2d(384, 384, kernel_size=(1, 1), stride=(1, 1), bias=False)          (bn): BatchNorm2d(384, eps=0.001, momentum=0.03, affine=True, track_running_stats=True)          (act): SiLU(inplace=True)        )        (cv2): Conv(          (conv): Conv2d(384, 384, kernel_size=(3, 3), stride=(1, 1), padding=(1, 1), bias=False)          (bn): BatchNorm2d(384, eps=0.001, momentum=0.03, affine=True, track_running_stats=True)          (act): SiLU(inplace=True)        )      )      (1): Bottleneck(        (cv1): Conv(          (conv): Conv2d(384, 384, kernel_size=(1, 1), stride=(1, 1), bias=False)          (bn): BatchNorm2d(384, eps=0.001, momentum=0.03, affine=True, track_running_stats=True)          (act): SiLU(inplace=True)        )        (cv2): Conv(          (conv): Conv2d(384, 384, kernel_size=(3, 3), stride=(1, 1), padding=(1, 1), bias=False)          (bn): BatchNorm2d(384, eps=0.001, momentum=0.03, affine=True, track_running_stats=True)          (act): SiLU(inplace=True)        )      )    )  )  (24): Detect(    (m): ModuleList(      (0): Conv2d(192, 603, kernel_size=(1, 1), stride=(1, 1))      (1): Conv2d(384, 603, kernel_size=(1, 1), stride=(1, 1))      (2): Conv2d(768, 603, kernel_size=(1, 1), stride=(1, 1))    )  ))</code></pre>]]></content>
      
      
      <categories>
          
          <category> pytorch </category>
          
      </categories>
      
      
        <tags>
            
            <tag> pytorch学习 </tag>
            
            <tag> yolo </tag>
            
        </tags>
      
    </entry>
    
    
    
    <entry>
      <title>yolov5+csl旋转目标检测代码解析2</title>
…
dren</strong>是<strong>sequential</strong>,他的modules则如下面的输出所示：需要注意的是，自己本身是0号<strong>module</strong></p><pre><code class="language-python">    for name, t in net.named_parameters():        print('parameters:', name, t.shape)    for name, m in net.named_children():        print('children:', name, m)            for name, m in net.named_modules():        print('modules:', name, m)'''parameters: net.0.net.weight torch.Size([3, 4])parameters: net.0.net.bias torch.Size([3])parameters: net.2.weight torch.Size([2, 3])parameters: net.2.bias torch.Size([2])children: net Sequential(  (0): BasicNet(    (net): Linear(in_features=4, out_features=3, bias=True)  )  (1): ReLU()  (2): Linear(in_features=3, out_features=2, bias=True))modules:  Net(  (net): Sequential(    (0): BasicNet(      (net): Linear(in_features=4, out_features=3, bias=True)    )    (1): ReLU()    (2): Linear(in_features=3, out_features=2, bias=True)  ))modules: net Sequential(  (0): BasicNet(    (net): Linear(in_features=4, out_features=3, bias=True)  )  (1): ReLU()  (2): Linear(in_features=3, out_features=2, bias=True))modules: net.0 BasicNet(  (net): Linear(in_features=4, out_features=3, bias=True))modules: net.0.net Linear(in_features=4, out_features=3, bias=True)modules: net.1 ReLU()modules: net.2 Linear(in_features=3, out_features=2, bias=True)'''</code></pre><h3 id="五、to-device">五、to(device)</h3><p>  可以非常方便地把网络上的运算转移到指定设备（<strong>GPU/CPU</strong>）</p><pre><code class="language-python">device = torch.device('cuda')net = Net()net.to(device)# 需要注意的是
…
